Model: "sequential_1"
_________________________________________________________________
 Layer (type)                Output Shape              Param #   
=================================================================
 conv2d_6 (Conv2D)           (None, 32, 32, 128)       3584      
                                                                 
 batch_normalization_7 (Bat  (None, 32, 32, 128)       512       
 chNormalization)                                                
                                                                 
 activation_7 (Activation)   (None, 32, 32, 128)       0         
                                                                 
 conv2d_7 (Conv2D)           (None, 32, 32, 128)       147584    
                                                                 
 batch_normalization_8 (Bat  (None, 32, 32, 128)       512       
 chNormalization)                                                
                                                                 
 activation_8 (Activation)   (None, 32, 32, 128)       0         
                                                                 
 max_pooling2d_3 (MaxPoolin  (None, 16, 16, 128)       0         
 g2D)                                                            
                                                                 
 dropout_4 (Dropout)         (None, 16, 16, 128)       0         
                                                                 
 conv2d_8 (Conv2D)           (None, 16, 16, 256)       295168    
                                                                 
 batch_normalization_9 (Bat  (None, 16, 16, 256)       1024      
 chNormalization)                                                
                                                                 
 activation_9 (Activation)   (None, 16, 16, 256)       0         
                                                                 
 conv2d_9 (Conv2D)           (None, 16, 16, 256)       590080    
                                                                 
 batch_normalization_10 (Ba  (None, 16, 16, 256)       1024      
 tchNormalization)                                               
                                                                 
 activation_10 (Activation)  (None, 16, 16, 256)       0         
                                                                 
 max_pooling2d_4 (MaxPoolin  (None, 8, 8, 256)         0         
 g2D)                                                            
                                                                 
 dropout_5 (Dropout)         (None, 8, 8, 256)         0         
                                                                 
 conv2d_10 (Conv2D)          (None, 8, 8, 256)         590080    
                                                                 
 batch_normalization_11 (Ba  (None, 8, 8, 256)         1024      
 tchNormalization)                                               
                                                                 
 activation_11 (Activation)  (None, 8, 8, 256)         0         
                                                                 
 conv2d_11 (Conv2D)          (None, 8, 8, 256)         590080    
                                                                 
 batch_normalization_12 (Ba  (None, 8, 8, 256)         1024      
 tchNormalization)                                               
                                                                 
 activation_12 (Activation)  (None, 8, 8, 256)         0         
                                                                 
 max_pooling2d_5 (MaxPoolin  (None, 4, 4, 256)         0         
 g2D)                                                            
                                                                 
 dropout_6 (Dropout)         (None, 4, 4, 256)         0         
                                                                 
 flatten_1 (Flatten)         (None, 4096)              0         
                                                                 
 dense_2 (Dense)             (None, 512)               2097664   
                                                                 
 activation_13 (Activation)  (None, 512)               0         
                                                                 
 dropout_7 (Dropout)         (None, 512)               0         
                                                                 
 batch_normalization_13 (Ba  (None, 512)               2048      
 tchNormalization)                                               
                                                                 
 dense_3 (Dense)             (None, 100)               51300     
                                                                 
=================================================================
Total params: 4372708 (16.68 MB)
Trainable params: 4369124 (16.67 MB)
Non-trainable params: 3584 (14.00 KB)
_________________________________________________________________
Epoch 1/350
100/100 [==============================] - 12s 72ms/step - loss: 4.6819 - accuracy: 0.0356 - val_loss: 4.7855 - val_accuracy: 0.0101
…
